ppo-LunarLander-v2/policy.pth (torch, 43393 bytes, 11 tensors)

mlp_extractor.policy_net.0.weight f4 [64, 8]
00000000: 4cb1 a7bd bacc 2e3e 7003 f9bc 9d12 f83e
00000010: 6514 4b3d 951f 3c3c e7a8 d93e e7c9 14be
00000020: 7394 673d 9f2f cabd 75ca 073f 9b54 763e
00000030: 30f2 18bd fdc4 bc3d 9f91 e7bd 3f65 93be
00000040: bec8 12be 4143 7e3b bfce 92bd b926 38be
00000050: cc3c 323e 15aa 79bb a79f 5d3d 3484 bcbd
00000060: f5ee 46bd 2838 3e3e 677b 0a3e 53c8 c33e
00000070: e5b8 a03d 0856 943e 03e1 a93e aece 4d3e
00000080: 2b87 afbd 74d5 003d 5fb2 2b3d 71f0 d1be
00000090: 6ef3 6c3d c292 9f3b 613f 12be 0554 1cbe
000000a0: aa4a 82be 3b11 2e3e de89 e93d a28a 813d
000000b0: f37e 073f 33d6 e0bb 8034 6a3d e8b3 3dbe
000000c0: d7cc 6e3d 44e5 3a3d aee3 c63c 3096 1ebe
000000d0: ef8d 4fbf dd73 19bf cd64 4cbe 1a0c 513e
000000e0: 0434 033f aad4 4b3e 0842 183e 8087 84be
000000f0: 3051 67be 9b67 87be b989 2fbe a33a 9b3e
00000100: c705 723e dd04 873d 3c96 39be 2fa5 843e
00000110: a947 413e 6d74 c93d a108 8a3d 50d9 38be
00000120: 45ac ac3b f61c 46bd 57f3 f9bd 2cd2 93be
00000130: 9569 32be 1945 85be 9a55 96bc 6e59 bfbd
00000140: 4713 03be c6ac 1ebe 989a 67be b227 b93e
00000150: d5d3 0d3f 3c4e 573e 13a2 63bd f6d9 3abc
00000160: 4aa2 4a3e 74c8 973e eacf 013d 42d1 c53e
00000170: 5368 a83e d415 173e 0e70 4c3e ee48 423d
00000180: e219 3b3e c975 d3bd 0389 493e b548 14bf
00000190: 5b40 cfbe 65cc 41be 1ce8 1dbe ce76 36be
000001a0: 6869 413e c886 1b3e 3a14 263f 8a49 a93e
000001b0: f651 a1be 6a91 09bf c994 3abd 0027 44bd
000001c0: 3883 30be 0652 7b3e 68d9 6bbe 9a2b 19be
000001d0: aef4 ab3e cba4 84be 59cc 993e bb32 3d3e
000001e0: 8bc5 993d 6c50 093e 80ea 4e3e f57e 83be
000001f0: 9d1c 36bf 45ac 88be 8a02 603e a0dc 17be
00000200: 340b 12be ff48 02bc 15ca 48be 6803 373e
00000210: cc33 bf3e 3373 d53e 62fc dcbd d171 6abb
00000220: 8768 063e 28f5 dd3d 1603 0f3e b26f 81be
00000230: a2ea cfbe 5ce3 d9bc 1123 9fbd 2f34 82bd
00000240: a02b 50be 3d21 0a3e bfd0 95bd 5b76 d73e
00000250: 905c 8f3e 6ff1 643e 2f78 093e ed88 8c3e
00000260: b0ea 8f3e 47d4 d1bd 6ef6 f9be 1004 39be
00000270: f578 7ebe 814b 90bd aa5d d93c 188e ce3d
00000280: 9731 a7be a412 623c 3575 493e fd35 c23e
00000290: e05d 053e 92d0 023f bea3 283e eed8 a23e
000002a0: 7796 f03d fdc9 803e 44a6 0abe 2cd9 ce3e
000002b0: 5d9d 993e 1eb4 7d3e 1da7 253e 6fe7 14be
000002c0: 3f59 a6bd c5c5 efbd 7c7b 5ebe 289e ba3e
000002d0: 41c0 bc3c f16f 27bd c319 303e f8de 83be
000002e0: 799c c5be dba7 0e3e e9bc 93be f4ea 8f3d
000002f0: 551b ea3e 7a5b bc3e 3d2c 36bd b505 e33c
00000300: d16e 31bd 2b14 363d d303 3bbe 4b86 d4bd
00000310: 36b7 de3e 6761 043f b90d c0be c39d 403d
00000320: b975 71bc b036 d3bc e9ca bbbc 12b3 43be
00000330: 5123 dd3e 893f 2f3f 5a53 253c f9ac 983e
00000340: eecd 933c 001b c63c 4f21 2e3e 55f0 133e
00000350: ef3b 00bf 4d90 cbbe 02ac 85be b358 4e3e
00000360: d83c 1abd bc19 43bc 4893 ed3e 20f8 403e
00000370: 4527 0dbf f46d 04bf 7c53 bbbd 6a8c d1bd
00000380: b234 433d 9f2e e03d 54b3 4f3e a5a7 893e
00000390: a81e 8abc 0181 253e 7a6c 083e f7cf 6fbd
000003a0: bc74 4bbe f662 3ebd ab57 d0bc 097b ef3e
000003b0: 71f5 433e 2240 663e 14ac 96be 240b 0a3e
000003c0: 2051 323e 3959 68be fc22 203e fcea 1dbe
000003d0: a19e 8abe d7fb 873e 1572 213e a5f8 b43e
000003e0: dc50 44be 78b9 2d3d 8b2a debe fa56 18be
000003f0: 5084 093f 499c ec3e 4c60 1f3e 6c1d 453e
-0.081881136 0.17070284 -0.030397147 0.484517 0.049579997 0.011482139 0.42511675 -0.14530145
0.056538057 -0.09872364 0.530433 0.24055712 -0.037340343 0.0921726 -0.11307072 -0.28788182
-0.1433439 0.003879741 -0.0716834 -0.17983522 0.17406005 -0.0038095762 0.054107334 -0.09204903
-0.04856773 0.1857611 0.13523637 0.38238773 0.07847766 0.28971887 0.33179483 0.20098373
-0.08570703 0.031453565 0.041918155 -0.41003755 0.05784934 0.00486979 -0.1428199 -0.15266426
-0.2544759 0.1699876 0.11403249 0.0632527 0.52928084 -0.006861472 0.057178974 -0.1852566
0.05830082 0.0456288 0.024278488 -0.1548698 -0.8107595 -0.5994242 -0.19960327 0.20414773
0.51251245 0.19905344 0.14868939 -0.25884628 -0.22589564 -0.26446232 -0.17142381 0.30318174
0.23635016 0.065927245 -0.18123716 0.25907275 0.18874992 0.098366596 0.06739927 -0.18051648
0.0052695596 -0.048367463 -0.122046165 -0.28871286 -0.17423089 -0.2602928 -0.018351365 -0.09343229
-0.12800322 -0.15495595 -0.22617567 0.36163098 0.55401355 0.21025938 -0.055574488 -0.011404505
0.19788471 0.2964512 0.031692423 0.38636214 0.32892093 0.1475442 0.1996462 0.047432832
0.18271592 -0.103252 0.19681172 -0.5792344 -0.40478787 -0.18925627 -0.15420574 -0.17818758
0.18887866 0.15188134 0.64874613 0.33063918 -0.31507844 -0.5373751 -0.04555205 -0.047888756
-0.17237556 0.24543008 -0.23032153 -0.14958039 0.33585113 -0.25906977 0.30038717 0.18476383
0.075083815 0.13409585 0.20206642 -0.25682798 -0.7113741 -0.2669393 0.21875969 -0.14830256
-0.14262086 -0.007951974 -0.19608338 0.17872393 0.37344205 0.41689453 -0.10790326 -0.0035773406
0.13125812 0.108377755 0.13966021 -0.2528053 -0.40608698 -0.026597671 -0.0777036 -0.063576095
-0.20329142 0.13489242 -0.07315206 0.42082486 0.28000307 0.22357725 0.13424753 0.27448216
0.2810874 -0.10245567 -0.48820823 -0.18067956 -0.24850829 -0.07045651 0.02653392 0.10085696
-0.32655022 0.01379839 0.19673617 0.37931815 0.13024092 0.51099503 0.16468713 0.3180613
0.11747449 0.25154105 -0.13539988 0.40400064 0.3000287 0.2477574 0.1617703 -0.1454141
-0.08122491 -0.117076434 -0.21726793 0.3644879 0.023040893 -0.04087824 0.17197327 -0.2575605
-0.38595942 0.1393122 -0.28855065 0.070272356 0.45723978 0.3678854 -0.044475783 0.027712682
-0.043318573 0.044452827 -0.18263178 -0.10377177 0.43499154 0.51711124 -0.3751047 0.047025453
-0.01473754 -0.025782913 -0.022923904 -0.19111279 0.43191007 0.6845632 0.010090673 0.29819468
0.01804253 0.024182796 0.17004894 0.14447148 -0.5009145 -0.3975853 -0.26107794 0.20151024
-0.03765568 -0.011907991 0.4640143 0.18844652 -0.55138046 -0.51730275 -0.09146783 -0.1023186
0.047657676 0.10946392 0.20283252 0.26885715 -0.016860321 0.16162492 0.1332263 -0.05854794
-0.1986875 -0.046481095 -0.025432428 0.46773556 0.19136597 0.22485402 -0.2942816 0.13480812
0.17413759 -0.22690286 0.15638345 -0.1542167 -0.2707415 0.26559326 0.15766175 0.3534595
-0.1917147 0.042413205 -0.43391833 -0.14876929 0.5371752 0.46212986 0.15564078 0.19249505

mlp_extractor.policy_net.0.bias f4 [64]
00000000: 619f be3c af11 ab3d c70c 11bd 29b6 823b
00000010: 8b6e 93bd cd3d 0abd 7862 2fbd b881 17be
00000020: 5c98 a93c b65a 52bd fa18 933d 6dbf a4bc
00000030: 3ede aebc 5531 7b3c e214 23be 1cfe 56bd
00000040: 3581 533c 4889 c4bd 47bb 213c 05c0 17bd
00000050: 85e0 4f3d 483d 9cbc 99c6 ff3d 91dc 52bd
00000060: 85d9 3ebd d2e8 e5bc ef38 9a3c f8be 373d
00000070: b754 ef3c acef ab3d b797 593c cc51 36bd
00000080: de71 4dbc 2169 07ba 230f d33a 1a3c d5bd
00000090: 3754 44bd df07 ecbb 90a0 84bb 60da d2bd
000000a0: 4ec2 453d b84e 9bbc eb7d 053d d244 ddbb
000000b0: 4965 07bd fc51 223c d3be c43c ff90 95ba
000000c0: e513 983b ce9d f9bc bd0c 813c 0c84 553d
000000d0: 3122 4abc d90c b8bc aa6a 343c e0c4 96bd
000000e0: 2c26 20bc eced 5a3d a61c 20bd dd7c d338
000000f0: 9068 2abd 584d ce3d 3756 b43d 3700 5fbb
0.023269357 0.08352982 -0.035412576 0.0039890003 -0.07198819 -0.033750344 -0.042818516 -0.14795578
0.020702533 -0.05135604 0.07182498 -0.02011081 -0.021346208 0.015331586 -0.15925935 -0.05248843
0.012909223 -0.09596497 0.009871311 -0.03704836 0.050751228 -0.01907219 0.12489051 -0.05147988
-0.04659416 -0.028065119 0.018825976 0.044859856 0.0292152 0.08395323 0.013280801 -0.0445116
-0.012539355 -0.0005165507 0.0016102534 -0.10411854 -0.047931876 -0.0072030867 -0.004047461 -0.10295558
0.048281007 -0.018958434 0.032590788 -0.006752589 -0.033055577 0.009907242 0.024016773 -0.001141101
0.0046410435 -0.030470755 0.015753144 0.052127883 -0.012337253 -0.022467064 0.011011759 -0.0736177
-0.009774726 0.053449556 -0.03908982 0.00010084522 -0.041603625 0.10073346 0.08805507 -0.0034027228

mlp_extractor.policy_net.2.weight f4 [64, 64]
00000000: 8f6b 01be 9582 c0bd e019 4f3d e65b a43c
00000010: a0a7 3e3e 1d4e 1d3b 6539 e03e f54e dcbd
00000020: 63ef 5cbe b318 63be 65a9 49bd 3b92 e33b
00000030: 3ea4 303c fd93 eebd ccb0 0abd 6eb9 cc3d
00000040: 197e 11be ae4e afbd 1793 62be 9c8e 03bd
00000050: 9cbb 2abe c512 a83d 5e33 0b3e b398 e13e
00000060: 5362 80bc ad9b da3d d8b1 073e 91c3 e1bd
00000070: 05d1 29bd c7a0 25bc 2cc0 0c3e a5cf 703e
00000080: 547f c83e 2541 21be 583a f23d b14a 7b3e
00000090: c6cb 313e 137e 76bd 4a11 0fbe 6473 bfbc
000000a0: 560f fcbd 73bc 51be 14cb 5e3d 8283 803e
000000b0: ac95 c93e 3919 013d 5e1a 8a3e 5894 593e
000000c0: bb82 643e 3648 a53e 3865 a9be 987d 4cbd
000000d0: dba8 1abe 0b8d 073e 1a91 e23d c9b6 d3bd
000000e0: 46dd d73d 6928 3a3d 8b5e 133e 7034 eabc
000000f0: 65a7 1fbe 48c2 573e c64f e9be 799d 3fbd
00000100: 98f5 8c3d d5bc 88be a037 c2bd 3e9a 19be
00000110: 320d 103e a789 be3d b9c9 1a3e 5efa 1a3e
00000120: d2bf 523e f697 2abe 6945 9c3c f1e5 c9bd
00000130: 0941 943e 8b20 2f3d 94a7 b0be a910 453e
00000140: cecd 1ebf c800 413d eb73 02be 82cd ab3c
00000150: 68e0 72be 45c6 dfbd dec2 ca3b 96fb 7ebe
00000160: ce3d 09be 5322 cbbe 0ee2 eebc 4e57 0c3c
00000170: 0705 76bd 2730 ffbd da82 aa3e 7072 96be
00000180: b161 86bd d52d 2f3e 40a6 e23c 65f3 6b3e
00000190: 0b62 893d c3c2 1b3e aea9 cd3d a9d6 523d
000001a0: 758a adbd 4327 173e f243 34bc b0d8 2fbd
000001b0: 6b4b fb3d 5570 0dbe ef5a 83be f582 57be
000001c0: ed77 a63e db94 92bd 6bcc ff3d 4402 303e
000001d0: d935 13bd 6c94 1ebd da65 5e3d 0800 c63e
000001e0: 84e1 4ebc ae47 763e 17e1 9a3e 28c2 afbe
000001f0: 286a 723d 3648 6d3d 7dbc 0dbd 0ed6 60be
00000200: 96a3 6bbd 82a2 23bd ecde 283d 087d 963c
00000210: 502b 98be c479 503d 2b28 42bd c8d2 943d
00000220: 3b6f ebbd ca23 d53d f084 413f cf63 203e
00000230: d39e 033d 0f54 c8be 3fc0 21be 60ab 913d
00000240: 7e12 e83d b6d0 0dbd 8771 1c3e bf26 14be
00000250: 5d24 363c 226c 943d 840e adbd a14e 153e
00000260: 7bde 0abe 4570 6abd 40af 133e f89e 29bd
00000270: ffac 53bd ed03 fcbd 6726 6ebc a372 253e
00000280: 9f3f 81be 24ab 7b3d 191e d93e 4684 a23e
00000290: 9b0b 363b bae7 e63d 4840 89bd b343 223e
000002a0: 5b8e 493d b404 02be 6986 a3be 1a9d e8bd
000002b0: cff8 1b3e fa7e 7c3d 6c3d fb3c 9d54 5f3c
000002c0: 6fbb 51be 2a7f 8cbd 68e3 22bd 8e6d 8bbe
000002d0: bcab dfbd 716d 4c3e b4ff 6a3c 3f78 15be
000002e0: 4723 9b3e f8e5 0abe 1b5c 333e edbd a9be
000002f0: ca41 c13d 408b 9dbe b17d 733b 7a0a 143e
00000300: bbb4 99be 02d6 5d3d 7b76 87bd f860 fc3d
00000310: 014f 073e 7053 b53d d1e0 cc3e b100 4e3b
00000320: 4c5d 093e 629e 0c3c e4e7 e8bd 9633 cfbd
00000330: f5bc f73d 4d87 07bf d5b2 63be 0fcc 4b3d
00000340: 952f ee3d fdb9 0bbe 4276 87be 75d9 203e
00000350: 7b07 033d e645 0dbe 1485 e3bd c70b 90ba
00000360: 14f3 983e d9f1 2dbe 42af e2be cb80 8abe
00000370: 3f5f 2b3d bf7b b9be 209c 3fbd f91c e0bd
00000380: c904 b73d bfe5 97be 6927 643e cc9c 073e
00000390: cb59 5b3e b340 c13e 9262 c33d fa3a 893e
000003a0: b592 353d f1d9 59be a3af 92bc 4ea6 3fbe
000003b0: 1160 4fbe ce80 113d 12be 0cbe 6685 323e
000003c0: 2709 6ebe 1add 1b3d 59d4 093e b396 e5bd
000003d0: 0822 b33d d4f5 ae3e 91cc da3b 211a 9dbd
000003e0: e514 1f3e eda2 a6bd 3180 e9bd 502a 773e
000003f0: b30a d53d 1c7c d0bd 4428 dabd 9aeb ccbe
-0.12638687 -0.093999065 0.050561786 0.020063352 0.18618631 0.0024002858 0.4379379 -0.10757247
-0.21575694 -0.22177391 -0.049233813 0.0069449223 0.010781346 -0.1164932 -0.033860013 0.099963054
-0.14208259 -0.08559929 -0.22126423 -0.032118425 -0.1667313 0.08206705 0.13593814 0.44061813
-0.015671885 0.10674224 0.13251436 -0.110236295 -0.041459102 -0.010109133 0.13745183 0.2351671
0.39159644 -0.15747507 0.118275344 0.24540211 0.1736289 -0.060178827 -0.13971439 -0.023370452
-0.123076126 -0.20482044 0.05439289 0.25100332 0.39372003 0.031518195 0.26973242 0.21247995
0.22315495 0.32281655 -0.33085036 -0.049924463 -0.15103476 0.13237397 0.11062832 -0.10337598
0.105402514 0.045448694 0.14391534 -0.028589457 -0.155912 0.21070206 -0.45568675 -0.046781037
0.06882781 -0.26706567 -0.09483266 -0.15000245 0.14067534 0.09303599 0.15116014 0.1513457
0.20580986 -0.16659531 0.019076066 -0.09858311 0.28955868 0.042755645 -0.34502852 0.19244637
-0.62032783 0.047119886 -0.12739532 0.020972017 -0.23718417 -0.10926489 0.0061877808 -0.2490066
-0.13402483 -0.39674625 -0.029160526 0.008565737 -0.06006339 -0.12460356 0.33302957 -0.29384184
-0.06561602 0.17107327 0.027667165 0.23042066 0.06708153 0.15211014 0.100421295 0.051474247
-0.08473674 0.14761071 -0.011002528 -0.04293126 0.12270244 -0.13812383 -0.25655314 -0.2104605
0.3251337 -0.07157298 0.124901615 0.17188364 -0.035940025 -0.038715765 0.054296352 0.386719
-0.012627009 0.24050781 0.30249855 -0.34327817 0.05918327 0.057930194 -0.034603585 -0.21956655
-0.057529055 -0.0399499 0.04122822 0.018370166 -0.29720545 0.050897375 -0.04740159 0.07266766
-0.11495825 0.10407217 0.7559347 0.15663074 0.03213389 -0.39126632 -0.15795992 0.07112765
0.11331652 -0.03462287 0.15277682 -0.14467905 0.011117068 0.07247187 -0.08450034 0.14580776
-0.13561432 -0.057235975 0.14422321 -0.04141137 -0.051678654 -0.12305436 -0.014535523 0.16157012
-0.25243852 0.06144251 0.42405775 0.31741542 0.0027777913 0.11274667 -0.06701714 0.15846138
0.049208026 -0.12697107 -0.31938484 -0.1135809 0.15231632 0.06164453 0.030668937 0.013631013
-0.20481656 -0.06860192 -0.039767653 -0.2723202 -0.109214276 0.19963624 0.014343191 -0.14596651
0.30300352 -0.13564289 0.17515604 -0.33152714 0.094363764 -0.30770302 0.0037153775 0.14457121
-0.300207 0.054159172 -0.06614395 0.12323183 0.13213731 0.08853805 0.4001527 0.0031433518
0.13414496 0.008582683 -0.113723546 -0.10117261 0.120965876 -0.5294083 -0.22236188 0.049755152
0.11630169 -0.13645168 -0.2645741 0.15707953 0.031989556 -0.13796195 -0.11109367 -0.0010989838
0.29872954 -0.16986789 -0.44274336 -0.27051386 0.04183888 -0.36227223 -0.04677975 -0.10943026
0.089364596 -0.2966747 0.22280659 0.13243407 0.21420972 0.37744674 0.09540285 0.26802808
0.044329364 -0.21274544 -0.017906016 -0.18715784 -0.2025149 0.03552323 -0.13744381 0.174337
-0.23245679 0.038052656 0.1345991 -0.11210384 0.08746725 0.34171927 0.0066772182 -0.07670999
0.15535314 -0.081365444 -0.11401404 0.24137235 0.10402431 -0.10179922 -0.10652211 -0.400235

mlp_extractor.policy_net.2.bias f4 [64]
00000000: ba2a e7bc 7caa 543c 1454 f7bc cef0 abbc
00000010: 88e7 86bc 8cc3 45bc 1cf6 ee3c a475 77ba
00000020: bfa9 4cbc 4b29 0fbd df79 693c 1452 963b
00000030: cea0 c6bc 4702 d43b 3c4a 053d 04de 9fbc
00000040: c672 d53c c7f8 edbb f7b2 343c 2c7e 2e3c
00000050: 2ef8 2cbd 6c2d 463d 3683 95ba 85d9 6dbd
00000060: c970 20bd b4bf 6dba 3b80 32bd ad2a 1abd
00000070: 244c 46bd f973 89bd 87f7 b43d fda3 8ebd
00000080: 64f8 c33c eb30 fb3b 85ea 1abb 0a48 d4bc
00000090: 0770 d1bc 9ae3 b7b9 31e6 32bd 1e3e 63bd
000000a0: 2114 6dbc 2390 3abc 2fc1 523c 9e86 25bc
000000b0: 90d0 d0bb f7b5 e43c cbe0 a1bc 68f8 da3a
000000c0: 9341 a5bc bea3 703b 327b b0bb ce5f 31bd
000000d0: cdce 453a dd9c 383d a7ba c5bb 1452 4a3c
000000e0: fa83 483d 04ba cc3c 89b6 32bd f61e 663d
000000f0: 70b8 913c 52fe e73c 75e1 97bc 2281 1cbd
-0.028218616 0.0129801 -0.030191459 -0.020988848 -0.016467825 -0.012070548 0.029170088 -0.0009439832
-0.0124916425 -0.03495149 0.014250248 0.004587421 -0.0242466 0.006469998 0.0325415 -0.019515045
0.026055705 -0.0072623226 0.011028997 0.010650199 -0.04222887 0.04838316 -0.0011406902 -0.05806877
-0.03917006 -0.00090693985 -0.04357932 -0.037638355 -0.048412457 -0.06711573 0.088362746 -0.06964872
0.023922153 0.0076657436 -0.002363832 -0.025913257 -0.025566114 -0.00035074056 -0.04367656 -0.05547916
-0.014470131 -0.011386904 0.012863441 -0.010102896 -0.006372519 0.027918799 -0.01976051 0.0016706111
-0.02017287 0.0036718692 -0.00538578 -0.043304257 0.00075457693 0.04507147 -0.0060342136 0.0123486705
0.048953988 0.024991043 -0.04363111 0.05618187 0.017788142 0.028319512 -0.018540123 -0.03820909

mlp_extractor.value_net.0.weight f4 [64, 8]
00000000: 5d91 db3e f981 11bd 99a2 1c3f 873f c7bf
00000010: 436d 1340 2d45 b5bc 784a 9ebd f0d8 6dbe
00000020: b5ca 37bf f560 1abf 6134 4c3f 432a c13e
00000030: 9a72 d2be 18c8 d2bd a434 4e3e 2ac9 25bd
00000040: 4a4c 3b3f 3e64 933e e337 683e 01bd 62be
00000050: b77c 32be 626b 04bf 38a3 dfbe 3fe7 67be
00000060: d67f b7bf 0c3f 21bf e544 ecbd 635a 8a3d
00000070: 7d13 d93e ccf2 72bd 89d2 683e 9d78 d23e
00000080: 0d6f 07be eff4 e4be 422f b13d 629a fb3e
00000090: 57a2 87be 42f1 533e 337b ce3d 8bdf 11bf
000000a0: de9e af3f 9810 4e3e e086 1040 35d7 a2be
000000b0: 6613 2d40 669a 61be 6b98 b83e 0ad5 69be
000000c0: 6ef9 7bbf 01ce 1b3f 22cc 1ebf 11cb b0be
000000d0: bd4f 3c3f 4ee6 fabc 75ce e2bd 8f86 023f
000000e0: a2c0 0b3f 9d87 043f 0a0d a7be 6b0a 83be
000000f0: 8027 ffbd 3408 8ebd 3b7c 64bd 615d 133f
00000100: 68ed 75be ad42 bfbe c1a3 0b3f e0a1 a43e
00000110: 0b8b bf3c 5335 2fbe 73a2 98be a781 b3be
00000120: 0fdd 523f b439 033f e8d9 603e 73a4 7cbe
00000130: 61e8 7fbe a7f0 34bd 5e80 393d cda4 f23d
00000140: b3cc d73e 0124 84bf d457 8a3f 4d16 8a3d
00000150: 76ba 08bf ba07 8c3e e5d2 8abe afc6 92bd
00000160: 9c9e 80bf 6223 2dbf 1d1a 21be f564 99be
00000170: 9475 f43d 7ca8 1d3c e4d8 01be 91bc c23f
00000180: 7543 523d d114 c53e fbd1 f43e 5346 d5be
00000190: 2b8b d73d 549e ad3d 4ae3 813e 1464 643f
000001a0: 85ff 4abf 3b94 003f eeed 0bc0 0b1c 8e3f
000001b0: deb1 e4bf d90e eb3d 7d37 903d 992a 84bf
000001c0: 7781 a23f c59f 5abf d916 253f d602 c13e
000001d0: 2320 02bf 5b99 8dbd 81dd 323e 7be2 44bd
000001e0: b507 66bf 626b 8abc cc56 3ebf 1329 313e
000001f0: 4eb0 943e 637b d9be d6ae 3d3e 33c2 e13e
00000200: be21 04bf 4b83 2abe 4d09 e4be ed39 73bf
00000210: bc2d 20bc 881d 60bc dd22 e6be 7a07 b03f
00000220: a736 7d3f 88f7 59bf 931f 5c3f 2dc1 833e
00000230: 282b 1b3f 387d d63e 0131 493c 590f 56bf
00000240: d40f 0fbf 50aa 253f ee72 08bf 256d c5be
00000250: 7f9f 213e ea61 763c c0bc 723e 22af 633f
00000260: c8c5 ee3a 9466 9f3e 4616 9d3f 05f1 b9bf
00000270: 0a07 f93f a232 c43b 7a73 95be a5a1 d2be
00000280: 3024 a93f 0d56 833e 3108 b03e 2ad3 b5be
00000290: 8657 44bf 55d1 bc3d d76b ca3d a24b 7dbf
000002a0: d726 54bf 93dd bfbe df56 27be 0305 0f3f
000002b0: fba0 77bd f732 ac3e 1620 1dbd 0891 d7be
000002c0: 6d1e 793f bed6 db3e e6cf 753e c319 4a3d
000002d0: 48de 64be 19e4 e6bd 9ef6 fdbe 3e9c 84be
000002e0: a726 2e3e 4993 8e3e 6dc1 0840 c637 e33b
000002f0: 8e3d e03e 70af 583c 1c5f 11be 9c36 b0bf
00000300: 3e66 79bf cece 89bc f318 f23e 697a a03f
00000310: 20a4 46bf 532c 453d 505e 823d 74a4 8fbd
00000320: 7c25 aa3f a45f 46bf 4437 f73e 12af b33e
00000330: 8762 41bf 0b3d 733d ef86 f5bc df82 0ebf
00000340: bbc2 adbf 6fa6 e93e 0a8a 39be d685 3bbf
00000350: 6632 f83e c81b 103c 0951 45be a008 9b3e
00000360: 4b7d 493f caac 80bd 0cd5 2fbf 9a8b c8be
00000370: 0bad 45bf b95f 9f3d 5564 65be c406 a83e
00000380: 6edd 1ebf 6af1 183e 5c83 333d df41 cd3f
00000390: 73f2 f3bf 935f 113e 73b3 513e f007 92be
000003a0: 2b62 36bf 040e ac3d 00c5 cf3e 06ba f83f
000003b0: 652d fcbf 2f2c a33e 1da8 4f3e b2d6 e33e
000003c0: bbc6 86bf d6c4 4fbf ab07 f43e 87cc 613e
000003d0: bac5 5cbe 5470 763e 5ed2 7a3e 6e6c 82be
000003e0: f79b 333e 076a d3be 7988 503e 8e8d 013e
000003f0: 3cf3 f8be d0e5 883e ee36 cebe 15ce 65bf
0.4288434 -0.035524342 0.61185604 -1.5566262 2.3035438 -0.022127712 -0.077290475 -0.23227286
-0.7179368 -0.60304195 0.79767424 0.37727556 -0.4110306 -0.10292071 0.20137268 -0.040475048
0.7316328 0.28787416 0.22677569 -0.22142412 -0.17430387 -0.51726353 -0.43679214 -0.22646807
-1.4335887 -0.62986827 -0.11536578 0.06755521 0.4239768 -0.05931358 0.22736563 0.41107646
-0.13225956 -0.4471812 0.08651592 0.49141222 -0.26491043 0.20697501 0.10082092 -0.56981725
1.3720357 0.20123518 2.258232 -0.31804815 2.704309 -0.22031555 0.36053786 -0.22835174
-0.98427474 0.6086121 -0.6203023 -0.34529927 0.7355917 -0.030627396 -0.11074535 0.5098657
0.5459081 0.5176943 -0.32627136 -0.25593886 -0.12458706 -0.06935158 -0.055782538 0.5756436
-0.24016345 -0.37355557 0.54546744 0.3215475 0.02338173 -0.17110185 -0.2981144 -0.35059854
0.8236856 0.51259923 0.21958125 -0.24672107 -0.2499099 -0.044174816 0.045288436 0.118478395
0.4214836 -1.0323488 1.0808053 0.06742535 -0.53409517 0.27349645 -0.27114025 -0.07166802
-1.0048404 -0.67632115 -0.15732618 -0.29959837 0.11936489 0.009622689 -0.12680393 1.5213796
0.051333863 0.38492444 0.47816452 -0.41655216 0.10524591 0.08477464 0.2536872 0.8921521
-0.7929614 0.5022618 -2.186397 1.1102308 -1.7866781 0.11477441 0.070418335 -1.03255
1.269576 -0.8540004 0.6448799 0.37697476 -0.50830287 -0.06914016 0.1746731 -0.04806755
-0.8985551 -0.016896907 -0.7435119 0.17300825 0.2904076 -0.4247695 0.18523726 0.44093475
-0.51613986 -0.16651647 -0.44538346 -0.9501026 -0.009776529 -0.013678916 -0.44948474 1.3752282
0.9891152 -0.8514333 0.8598568 0.2573332 0.60612726 0.4189241 0.01227975 -0.8361717
-0.55883527 0.64713 -0.5330037 -0.38559833 0.15783499 0.015037993 0.23704815 0.88939106
0.0018216902 0.31132948 1.2272422 -1.4526678 1.9455273 0.005987481 -0.29189664 -0.4113895
1.3214169 0.2565159 0.3438125 -0.35512668 -0.7669605 0.092196144 0.0988385 -0.9894353
-0.82871765 -0.37473735 -0.16341732 0.5586702 -0.060456257 0.33632633 -0.038360678 -0.42102838
0.9731205 0.42937273 0.24005088 0.049340975 -0.22350419 -0.11273975 -0.49602216 -0.25900453
0.17006932 0.27846745 2.1368058 0.006934139 0.43796962 0.013225421 -0.14196438 -1.3766665
-0.97421634 -0.016822245 0.4728466 1.2537357 -0.77594185 0.048137974 0.06365645 -0.07013789
1.3292689 -0.77489686 0.48284352 0.35094506 -0.75540966 0.059384387 -0.029971568 -0.55668443
-1.3575052 0.4563479 -0.18119064 -0.7325109 0.4847595 0.008795686 -0.19269194 0.30280018
0.78706807 -0.06282957 -0.6868446 -0.39169008 -0.7721717 0.077819295 -0.22401555 0.32817662
-0.62056625 0.14935842 0.043826446 1.6035727 -1.9058365 0.14196615 0.2047861 -0.2852168
-0.7124354 0.08401111 0.40579987 1.943177 -1.9701353 0.31869647 0.20278974 0.44499737
-1.0529398 -0.8115972 0.476621 0.22050677 -0.21559802 0.24066287 0.24494311 -0.2547335
0.17539965 -0.4129183 0.2036456 0.12651655 -0.48623073 0.26737833 -0.40276283 -0.8976758

mlp_extractor.value_net.0.bias f4 [64]
00000000: 72b6 f63e 017e c1be 3f81 0d3f 8df2 b2bd
00000010: e38d 063e 0e11 a03e efd4 ce3d d2f2 1f3e
00000020: ffc8 28bf 4df2 57be 48bb 9fbe 4d46 f4bd
00000030: 4adc e1be d298 c63e 05cb a5bc 542a 2e3e
00000040: 00af df3c 6eaa 7abe 19e2 663e 60cf 813e
00000050: b938 bfbd 987b c33e a927 c83e dd18 f83e
00000060: 1641 23bf 3e4f 043d 95be ebbe 211e 0d3f
00000070: f1db 04bf 593e f1be d5d3 1d3e d182 e53d
00000080: c0c5 193f 18cf 02be 0bce f53e 4ee1 95bd
00000090: 9c5b 3ebf 0612 d63d 823c 78be f417 54bd
000000a0: 930f e93e 4599 053e 78f7 76bd 19b9 05be
000000b0: baab 82be 91e3 6abe 20be 283f 84f5 bcbd
000000c0: eb4d dc3e 10b5 69be d796 82be d6e5 84bd
000000d0: fd2b 503c 4eb2 493e 8087 343e 7aeb bcbd
000000e0: 844c e33e 2bc2 903e 7544 bebe e3aa 43be
000000f0: 45e1 88bc d384 b2be 2e28 723d 251f edbe
0.4818607 -0.37791446 0.5527534 -0.08737669 0.13140063 0.31263012 0.100992076 0.15619972
-0.65931696 -0.21088524 -0.31197572 -0.11927471 -0.4411338 0.38788468 -0.020238409 0.17008334
0.027305126 -0.24479076 0.22547187 0.25353527 -0.09336991 0.38180232 0.39092758 0.4845647
-0.6377119 0.032302134 -0.4604384 0.551241 -0.51898104 -0.4711788 0.15412839 0.11206592
0.6006737 -0.12774312 0.4800876 -0.07318364 -0.74358535 0.104526564 -0.24241832 -0.051780656
0.45519695 0.13046749 -0.0602946 -0.1305889 -0.25521642 -0.22938372 0.6591511 -0.09226516
0.43028197 -0.22822976 -0.25505707 -0.0648915 0.0127058 0.19696924 0.17629814 -0.09224601
0.44394314 0.28273138 -0.37161604 -0.19108157 -0.01670898 -0.34866962 0.05912035 -0.46312824

mlp_extractor.value_net.2.weight f4 [64, 64]
00000000: 0068 26bd 9b88 103e 801c 1dbf da8d a0be
00000010: f3e0 e63e 4a91 9d3e fcc5 9dbf 4c0d ea3d
00000020: 42bb 403e 4e20 0f3e 5728 033f 5c74 5cbe
00000030: b9df 80bd 108e 5fbe be58 c13f 6cda fdbe
00000040: 8ca6 00bf a85d f03e fa29 16bf da88 973e
00000050: a7bc ff3e 48af 563e 760b ac3d 8b8f 823e
00000060: 6fe7 19be e85e d93f 55b7 13bf bed8 08bd
00000070: ad08 013e ff39 873e 783d 723e 39bb 3e3f
00000080: daaf 5ebd c61c ce3f 0582 5fbf 11f4 6cbe
00000090: c65e be3e f64f 1bbe 725a c83d 8c01 d0be
000000a0: 1ca8 29bf d8f7 3e3e c73b d8be 5d8e b5bd
000000b0: 3fa4 10bf c744 fc3d 379d 5dbd 66c6 a53f
000000c0: 91b0 38be 625d 2bbf 5a72 483e db19 26bf
000000d0: 87b8 0d3f d483 02bf 051b c93e 83d7 31bf
000000e0: f34a 4dbe 8bf2 b5be e47a 3dbe 74f6 38bf
000000f0: f409 4fbe 5a34 babe 315b 253f 1472 4fbf
00000100: 8d3c fc3e 756f f0bd 6269 c6be 045a 2ebe
00000110: 6489 18be 45ae 303e 4501 84bf 96a9 d83e
00000120: 6c79 9c3e da6d c33e f0f1 cc3e a4cf 613e
00000130: 92f3 853e 2e14 65bf 0bb5 b73f b74c 1abf
00000140: 8bd0 573c 96ee eb3e 6024 26be 824d f3bd
00000150: 8d63 8b3e fbc7 48be ffc4 88be b499 a5be
00000160: f5e0 693e eb64 8f3f 19d7 2dbf f878 0fbb
00000170: 9fcb d8bd 878b febd 48e7 ffbd 4ba5 8bbe
00000180: 17de b6be ae45 a73f c770 cdbe 1550 8abd
00000190: a665 8f3e 7f53 103f 1851 283e 58d6 1abf
000001a0: 1802 debe 357e 56be a96c 213f 0396 033c
000001b0: 5f6d 46bf 96b9 ba3e dfcf a13d 2ac1 643f
000001c0: 6ce0 a3be 7960 01bf 7eea 693e 0441 29bf
000001d0: eb89 183f 7bcc 04bf 8377 6e3e ede4 0bbf
000001e0: e8ae ec3d a7bd 17bf d834 9c3e f628 08bf
000001f0: 7b0a 6fbe b4be 68be 9175 093f a46c cfbb
00000200: de16 7b3e 36e3 833d f2b7 4e3e aeb0 f93e
00000210: c5d7 56bd a6bf 86be 1b08 783f 58df e63d
00000220: dfd0 dcbe 611a 043e c53e 37be 1094 f63d
00000230: c467 a53e 0b8e 1e3f d320 aebf ce1f 2b3f
00000240: 9351 ca3d 7429 40bf dc1a 183f a3f6 9ebe
00000250: f2ea 3abf ef0e 623e b087 b7be ad81 52be
00000260: 7474 4cbe 0d77 b9bf 7cd5 3c3f 3d16 d33d
00000270: f890 aebd 3919 adbd 12cc ff3d 4a4c cabe
00000280: c893 873e 3d99 ccbf 444c 093f 8a13 b93e
00000290: ecdb 94be 842d 42be 0518 e83d 4d97 433f
000002a0: cf86 233f 7f16 ec3e 23f3 4b3d 3da0 1e3e
000002b0: d552 343f 85c2 22be cb15 9f3e b624 9ebf
000002c0: 1b8d 0f3f de92 94be 1f6b 3fbe 692d e03e
000002d0: 1687 c2be 8673 443f cf72 e6be 30fc 023f
000002e0: 7c8b 05be bbb7 4a3f a035 923e 6ee7 583e
000002f0: fc6b a4bd 6ed1 d63e 2ab8 26bf bd6a a73e
00000300: b519 3e3f 1af0 e7be 0bd6 313f ca57 18be
00000310: b733 a53e 9d61 a23e 4731 ea3d 85de cc3d
00000320: e405 89bf 007e c3be 55c3 58bc f6e6 e3bd
00000330: f606 ce3a 860b 493e 604f c7be 391c 043f
00000340: 70e2 6f3e 6ca0 f2be 7fcf 633e d706 623e
00000350: 7ef7 f5bd 3865 963e bf69 ef3e b3b8 fd3e
00000360: 354e 38bf b3bd bbbd 50c7 e53d 9601 b43e
00000370: 87ab 65be 6fdb ddbe f30d edbb d4f9 f0bd
00000380: 1346 c83e eada 93be 12b6 363f 0c50 2e3e
00000390: dd07 3ebe dc78 393c 5142 febe 025c a0bb
000003a0: 5c3a 583e 34ef b03e 996b 0f3b 5eba 87bd
000003b0: 5ff0 053c 56e6 81be 64cc e13e b051 38be
000003c0: e949 883f 90db c13e a289 0dbf a6e9 843d
000003d0: 9e43 3abd 6e5a e13e 2572 7f3e 0176 303e
000003e0: 311d 013f d551 6cbd acd9 1ebf 1527 a4be
000003f0: 9533 eb3d 34b2 b7be 4949 943d 744d 16be
-0.040626526 0.14114611 -0.6137161 -0.31358224 0.45093498 0.3077491 -1.2326045 0.114283174
0.18821433 0.13977167 0.5123343 -0.21528763 -0.06292672 -0.21831536 1.5105207 -0.49580705
-0.5025413 0.46946454 -0.586578 0.29596597 0.49948618 0.20965302 0.084006235 0.2550014
-0.15029691 1.6982088 -0.5770162 -0.033409826 0.12600966 0.26411435 0.23656261 0.7450443
-0.054366924 1.6102531 -0.8730777 -0.23139979 0.3718168 -0.15167221 0.09782876 -0.4062618
-0.6627214 0.18649232 -0.42233106 -0.08865044 -0.5650062 0.12317806 -0.05410501 1.2951171
-0.18036105 -0.66939366 0.19574872 -0.648832 0.5535969 -0.50982404 0.39278427 -0.6946947
-0.20048122 -0.35536608 -0.1850391 -0.7225106 -0.2021864 -0.36368066 0.6459227 -0.81033444
0.49264947 -0.11740009 -0.38752276 -0.17026526 -0.1489616 0.17253979 -1.0312887 0.42316884
0.30561388 0.38169748 0.40028334 0.22051865 0.26162392 -0.89483917 1.4352125 -0.6027331
0.013172279 0.46080464 -0.16224813 -0.11880018 0.2722439 -0.19607536 -0.26712796 -0.3234383
0.2283972 1.1202673 -0.6790634 -0.0021892171 -0.10585713 -0.124289565 -0.12495285 -0.27274546
-0.35716316 1.306814 -0.40125105 -0.06753556 0.2800724 0.56377405 0.16437185 -0.6048331
-0.43360972 -0.20946582 0.6305643 0.008031371 -0.7751064 0.36469716 0.079009764 0.89357245
-0.32007158 -0.5053783 0.22843358 -0.6611483 0.59585446 -0.5187451 0.23287778 -0.5464619
0.11556798 -0.5927376 0.30509067 -0.531875 -0.23343842 -0.22728997 0.5369502 -0.0063300896
0.24520442 0.064398214 0.20187357 0.48767608 -0.052451868 -0.2631809 0.9688737 0.11273068
-0.43128106 0.12900688 -0.17895038 0.120399594 0.3230573 0.6193549 -1.3603767 0.66845405
0.0987884 -0.7506325 0.59415984 -0.31047544 -0.7301475 0.22076009 -0.3584571 -0.2055728
-0.19966298 -1.4489456 0.7376325 0.10306976 -0.08523744 -0.084520765 0.12490095 -0.3951133
0.26479936 -1.5984265 0.53632 0.3614772 -0.29074037 -0.18962675 0.11332706 0.7640274
0.63877577 0.46110913 0.04979242 0.15490814 0.7043889 -0.15894516 0.31071314 -1.2354953
0.56074685 -0.290183 -0.18693207 0.43784645 -0.37993687 0.76738775 -0.45009467 0.5116606
-0.1304149 0.791866 0.28556538 0.21182033 -0.08028409 0.41956657 -0.6512476 0.32698622
0.74257976 -0.4530037 0.6946723 -0.14877239 0.32266018 0.31715098 0.1143518 0.1000338
-1.0704923 -0.38182068 -0.013230165 -0.11128037 0.0015718627 0.19633302 -0.38927746 0.51605564
0.23426223 -0.47388017 0.22247122 0.22072922 -0.12010096 0.293741 0.46760365 0.49554977
-0.71994334 -0.09167042 0.112196565 0.3515746 -0.22428714 -0.43331477 -0.007234329 -0.11766401
0.39115962 -0.28877956 0.7137157 0.17022723 -0.18557687 0.011320319 -0.4965997 -0.0048937807
0.21116012 0.34557498 0.0021884202 -0.066273436 0.008174985 -0.25371045 0.4410125 -0.17999911
1.0647556 0.37862825 -0.55288136 0.064898774 -0.04547464 0.44014305 0.24945886 0.17232515
0.5043517 -0.05769523 -0.6205089 -0.32061067 0.11484448 -0.35878146 0.072405405 -0.14677984

mlp_extractor.value_net.2.bias f4 [64]
00000000: 39f6 07be e5a0 16be 87d9 183e 455d 263f
00000010: 3f6e 813e 5c41 10bd 6131 4f3e 2c9a 9f3e
00000020: 52a6 2dbc df50 923d d48f dcbd a876 ef3c
00000030: d43c 00be 41d0 a63e 68d7 25be 6a8e 1a3e
00000040: 547a 203e 4eb4 3ebe ad52 9abe 56bb 0f3e
00000050: 4f9e 033f 0dbc 363e 8ddf 89be aab5 b23e
00000060: 9300 c03d 7ab5 033e 29c0 e7bd 5b4b afbe
00000070: 915f 5bbe d93d f6bd a458 e2bc cc06 b9be
00000080: 1e7a 05bf 28d1 393e 8f21 87bd 466a 213f
00000090: f806 053e e0c8 f73c 427f 90bd 22b1 b4be
000000a0: 60fa 0f3f c6b2 5c3e 46e8 2dbf 447e 08bf
000000b0: 4ea8 343f dd69 06bf 9db1 95bd e9f7 0c3f
000000c0: 37a7 eabd 45ca a73e cbf2 2e3f 4f16 28be
000000d0: ef37 42be 86ff aa3d 3ea4 923d 04b9 5a3e
000000e0: 7965 6dbe cc0f 2fbe ada9 e03c c5ec 1c3f
000000f0: 4499 05bf 76ad a4be cbaf 50be 2ad6 e13e
-0.1327752 -0.14709814 0.1492673 0.6498607 0.25279424 -0.03521858 0.2023368 0.3117231
-0.010598736 0.07144331 -0.107696205 0.029231384 -0.12523204 0.3258076 -0.16195452 0.15093389
0.15671664 -0.18623468 -0.30141202 0.14036307 0.51413435 0.17845173 -0.26928368 0.34904224
0.093751095 0.12862197 -0.113159485 -0.3423718 -0.21423174 -0.12023515 -0.027630158 -0.36137998
-0.5213946 0.18146193 -0.06598198 0.63052785 0.1299094 0.030247152 -0.070555225 -0.35291392
0.56241417 0.21552572 -0.67932546 -0.53317666 0.7056931 -0.52505285 -0.07309268 0.5506578
-0.11457675 0.32771507 0.6833922 -0.1641476 -0.1896665 0.083495185 0.07160233 0.2135964
-0.2318324 -0.1709587 0.027424658 0.6129878 -0.5218699 -0.3216359 -0.2037956 0.44108707

action_net.weight f4 [4, 64]
00000000: 42c6 0abd 5780 0cbe 0562 b2bc 6226 0bbe
00000010: 509d 31be dbeb 3abe 52c6 61bd ecdd cb3d
00000020: 8295 58be 5cf6 4b3b e886 0a3e dcfc 96bd
00000030: bee1 11be 2b43 14be 347a e63d 5372 083e
00000040: 9a59 823d 6e95 f23d afc0 533d 8107 27be
00000050: 6e99 86bd 08e6 543d c4f7 81bd 9985 44be
00000060: 070f 12be e73f 27be ced8 353d 62d1 2abe
00000070: 2728 00be f659 fdbd c958 133e 033a 86bd
00000080: 8af2 c23d cb81 013e ca0e 873d 4b18 5e3d
00000090: fb5b bcbd 4d2b 23be c8ac d63d 5034 46bd
000000a0: 423d 0d3c 85c3 23be dc03 f63d 41fd 4e3d
000000b0: 2f05 51be 6d30 063e 386c 8a3d 03fe 4f3d
000000c0: 2b23 b1bd 413e 583d 76aa 04be 7b49 e9bd
000000d0: 22a3 2abe b453 413e bd23 05be f22e 083e
000000e0: 2dca 333e 2009 033e aa93 17be 0d2c e83c
000000f0: 351a 0c3e 7d83 1cbe 2400 47bc 9fff 03be
00000100: b3c8 a8bd b791 cd3d 4788 07be 826d 79bd
00000110: 3adc 023e 8ff2 ae3b 5c1b 96bd a6c4 843a
00000120: 8b47 3d3e 1976 81be eaca 143e 8531 26bd
00000130: c074 983e 1d44 8abd ccf7 9f3d d137 18bd
00000140: e006 9cbc 8873 cd3d 6282 30be 3e8a 3fbd
00000150: d591 c1bd a35d 4cbd 7bf6 acbd c9c1 87bd
00000160: e81a 46be 1d46 2c3d 02bc aebe 243a a13b
00000170: c920 493e d1af 83be 13a0 503d 5fc3 3dbe
00000180: 4968 f13d 4acb 143e b081 013e bae2 63ba
00000190: 3da5 f4bd ea8b 25bd da87 debd 751b 9dbd
000001a0: 0dba 383e abdc 773e 5db7 363d 3eb5 95be
000001b0: 589f 4f3d 1944 1a3e 2b04 ebbd 662a d63d
000001c0: 178b 99bd 61cd 123d 9529 4f3e eb9d 823c
000001d0: bb4c f5bd ca1c 163e 083c 0bbd b5d4 9e3c
000001e0: 7e8e 803b 63e3 8ebe 2e5d ddbd a5d0 c93d
000001f0: 6321 0a3e 810f 433d 2d8c 6fbe 1253 07bd
00000200: a06d 193e b695 273d 45b8 f43c c04d f63d
00000210: 65cd 623e 5dca 843e a466 45bd 8e62 b2bd
00000220: de98 7e3e 5fac 043d f7a7 54be 172e aa3d
00000230: d2b7 b33d dcc4 883e fc06 14be edca 23be
00000240: 8f4e 213d f43f 35be 3543 c7bd 8197 803e
00000250: 2491 703d ad2a 763d 5f9f 453e 81f8 4a3e
00000260: e342 903e e9ab 813e 1df4 af3d 2467 fc3d
00000270: 5e52 77bc 984a 423e 55c6 f0bd ac55 253e
00000280: 2550 efbd 7bbc 7ebe 1513 75bd 9f4c 34be
00000290: 9ea0 193e 99bd 553e 725e 6fbc 3dd3 b8bd
000002a0: ca8b a0bd c81c 0b3e 9fc0 05be c532 053e
000002b0: c3b8 4a3e 3fe8 8fbe e6d5 79bd 2608 743c
000002c0: d369 d13d be1e cc3d ffc6 683e 7ac8 3b3e
000002d0: a242 623e 864b 8fbe e6d0 773e f698 3fbe
000002e0: c901 65be e2a0 c7bd 0094 323e 6186 f0bd
000002f0: 24e3 4ebe f599 4a3e 55d9 dabd cedd 733e
00000300: c4fb 5ebd 7cd9 073a 4e80 d93d 63c6 973d
00000310: cccf 36be aca8 dabd 690f 4d3e 1a65 3ebd
00000320: 82a1 82be d414 5c3e dbfa 74bd b4eb 7d3c
00000330: fa49 7dbe cec0 3dbd cc4b 1bbd 884d 813d
00000340: 7a16 91bd 81ba d8bc 893a 533e 0e82 68bd
00000350: 5c42 d43d 98d0 a0bd 6f50 7ebd f248 ce3c
00000360: ad84 ff3c 7217 2cbe 4bf4 283e a761 d13c
00000370: 0849 80bd 2a9f 323e e3ef 8cbd 0bcb 8b3d
00000380: c1f6 dcbd e9f0 423c de34 f0bd a312 243e
00000390: 68f0 5c3d d9d9 e0bb b201 f93c 2e4d 7b3e
000003a0: 3901 e3bd ef2f 7abe 09ba 9abc 2d8b d43d
000003b0: 3783 afbd fa0e 343c d3bf fc3d db98 4abe
000003c0: 0f60 863d e651 2fbe 7c9b a6be c63b debd
000003d0: a81a 1c3d bd59 14bd e555 acbd 6aa0 5a3d
000003e0: fabe d23d 325f 883e 0efc 833d 6d55 1f3c
000003f0: c2b2 81bd dc6f cdbd 29ae da3e f102 c7bd
-0.03388048 -0.13720833 -0.021775255 -0.1358886 -0.17345166 -0.18254034 -0.055120774 0.099544376
-0.21150783 0.0031122183 0.13528025 -0.07372448 -0.1424627 -0.14478748 0.11253777 0.13324861
0.063647464 0.11844908 0.05169743 -0.16311456 -0.06572233 0.051977187 -0.06346086 -0.19191588
-0.14263545 -0.1633297 0.044396214 -0.16681436 -0.12515317 -0.12370674 0.14389338 -0.065540336
0.09518917 0.12647168 0.06594618 0.054222386 -0.091972314 -0.15934487 0.10482174 -0.048389733
0.008620562 -0.15992554 0.12012455 0.05053449 -0.20412134 0.1310441 0.06758922 0.050779354
-0.08649286 0.052793745 -0.1295565 -0.113909684 -0.16663793 0.18879586 -0.13001914 0.13299158
0.17557593 0.1279645 -0.14802423 0.028341318 0.13681872 -0.15284534 -0.01214603 -0.1289048
-0.08241405 0.100375585 -0.1323558 -0.06089545 0.12779322 0.005338974 -0.07329437 0.0010129407
0.18484323 -0.25285414 0.1453053 -0.04057457 0.29776573 -0.06751273 0.078109354 -0.037162606
-0.019046247 0.100318015 -0.17237237 -0.046762697 -0.094516434 -0.049893986 -0.0844545 -0.066287585
-0.19346201 0.042059053 -0.34127814 0.004920261 0.19641413 -0.25720075 0.05093391 -0.1853156
0.11787469 0.14530674 0.12647128 -0.00086931477 -0.11945579 -0.040416636 -0.108657554 -0.07671253
0.18039723 0.24205272 0.044608463 -0.2923984 0.05068907 0.1506504 -0.11475404 0.104573056
-0.074972324 0.035840396 0.20230706 0.015944442 -0.11977526 0.1465942 -0.033992797 0.019388536
0.0039232364 -0.27907857 -0.10808788 0.09854249 0.13489299 0.047622208 -0.23393317 -0.033038206
0.14983225 0.04091426 0.029873023 0.120265484 0.22148664 0.2593564 -0.04819359 -0.08710204
0.24863002 0.03239095 -0.20767199 0.08309572 0.08775295 0.26712692 -0.1445579 -0.15995379
0.03938156 -0.17700177 -0.097296156 0.25115588 0.058732167 0.060099293 0.19299076 0.19821359
0.2817603 0.2532647 0.08591483 0.1232436 -0.015095321 0.18973768 -0.11756579 0.16145962
-0.11685208 -0.24876587 -0.05983265 -0.17607354 0.15002677 0.20873107 -0.01460992 -0.090246655
-0.07839163 0.13585198 -0.1306176 0.13007648 0.19797044 -0.28106877 -0.060995005 0.014894521
0.102252625 0.09966801 0.22732161 0.18338194 0.22095731 -0.27987307 0.24200782 -0.18710694
-0.22363962 -0.09747483 0.1743927 -0.11744381 -0.20203835 0.19785292 -0.10685984 0.2381508
-0.05443932 0.0005182249 0.10620175 0.07410886 -0.17852706 -0.10676703 0.2002541 -0.046483137
-0.25513846 0.2149232 -0.059809547 0.015498091 -0.24735251 -0.04632645 -0.037914082 0.06313616
-0.07084365 -0.02645612 0.20627798 -0.056764655 0.103642195 -0.07852286 -0.062088426 0.025181267
0.031191194 -0.16805819 0.1649944 0.02555926 -0.062639296 0.17443529 -0.06881692 0.06825837
-0.10789252 0.011898258 -0.117288336 0.16022734 0.053940207 -0.006861907 0.030396316 0.2454116
-0.110842176 -0.24432348 -0.018887537 0.10378108 -0.08569949 0.010989899 0.12341275 -0.19784872
0.065612905 -0.17121086 -0.325405 -0.10851245 0.03811136 -0.036218394 -0.084148206 0.05337564
0.10290332 0.26635128 0.0644456 0.009724957 -0.063329235 -0.10031101 0.42711 -0.09717358

action_net.bias f4 [4]
00000000: daf5 da3b 8147 86bc faf1 483d aadb 0bbd
0.00668214 -0.016391518 0.04905889 -0.034145035

value_net.weight f4 [1, 64]
00000000: 9b85 5cc0 9ca9 58c0 94a9 5640 46c3 5540
00000010: da50 7740 c5fa 7740 5dc0 4cc0 f66b 67c0
00000020: 2c6c 60c0 333f 63c0 e94e 56c0 608d 7540
00000030: bcf6 6340 7252 6040 de82 5ac0 ea19 a240
00000040: 7649 5540 4026 4bc0 dfd1 95c0 91e8 5a40
00000050: 4c07 5040 a002 7a40 6964 6540 dc60 9240
00000060: cde0 5340 c7c2 5e40 b8a1 7540 2473 6540
00000070: 3fa0 8bc0 578f 41c0 aa36 4dc0 f022 92c0
00000080: fee6 9ac0 db72 4a40 4d0c 75c0 21a4 4740
00000090: 9212 6740 c9ab 5fc0 611a 6340 163a 8dc0
000000a0: d66f 5740 e091 3a40 8511 53c0 2f16 44c0
000000b0: efae 5540 9e3b 52c0 3220 4940 08a8 5440
000000c0: 4f5b 5ec0 d92f 3dc0 3d45 5840 233e 56c0
000000d0: 4ea8 34c0 b799 86c0 373d 7840 d7f5 5ec0
000000e0: dfb3 4d40 c415 51c0 6735 6ec0 b378 5740
000000f0: 368d 44c0 a8c6 98c0 3b06 8240 0852 9440
-3.4456546 -3.3853521 3.3541002 3.3400435 3.8643098 3.8746808 -3.199241 -3.6159644
-3.5066023 -3.5507324 -3.3485663 3.8367538 3.5619345 3.505032 -3.4142375 5.0656633
3.3326087 -3.1742096 -4.681869 3.4204447 3.2504454 3.9064102 3.5842535 4.5743237
3.3105958 3.4806383 3.8379955 3.5851526 -4.3633113 -3.0243738 -3.2064614 -4.566765
-4.8406973 3.1632602 -3.8288758 3.1193926 3.6105084 -3.49486 3.548485 -4.4133406
3.366201 2.9151535 -3.2979443 -3.063854 3.338802 -3.2848887 3.14259 3.3227558
-3.474323 -2.9560454 3.379226 -3.3475425 -2.8227725 -4.206264 3.8787363 -3.4837549
3.2141035 -3.2669535 -3.7220094 3.366742 -3.0711188 -4.77425 4.0632606 4.6350136
